[net]
# Configuraciones generales
batch=64
subdivisions=16
width=256
height=256
channels=3
momentum=0.9
decay=0.0005
angle=0
saturation = 1.5
exposure = 1.5
hue=.1

# Configuraciones de entrenamiento
learning_rate=0.001
burn_in=1000
max_batches=4000
policy=steps
steps=3200,3600
scales=.1,.1

[convolutional]
batch_normalize=1
filters=32
size=3
stride=1
pad=1
activation=leaky

[maxpool]
size=2
stride=2
pad=1

# Repite las capas convolutional y maxpool según sea necesario

[convolutional]
batch_normalize=1
filters=64
size=3
stride=1
pad=1
activation=leaky

[maxpool]
size=2
stride=2
pad=1

# Repite el bloque anterior según sea necesario para tu arquitectura

[convolutional]
batch_normalize=1
filters=128
size=3
stride=1
pad=1
activation=leaky

[maxpool]
size=2
stride=2
pad=1

# Repite el bloque anterior según sea necesario para tu arquitectura

[convolutional]
batch_normalize=1
filters=256
size=3
stride=1
pad=1
activation=leaky

[maxpool]
size=2
stride=2
pad=1

[convolutional]
batch_normalize=1
filters=512
size=3
stride=1
pad=1
activation=leaky

[maxpool]
size=2
stride=1
pad=1

[convolutional]
batch_normalize=1
filters=1024
size=3
stride=1
pad=1
activation=leaky

[convolutional]
size=1
stride=1
pad=1
filters=256
activation=leaky

[convolutional]
size=3
stride=1
pad=1
filters=512
activation=leaky

[convolutional]
size=1
stride=1
pad=1
filters=255
activation=linear

[yolo]
mask = 0,1,2
anchors = 10,13,  16,30,  33,23,  30,61,  62,45,  59,119,  116,90,  156,198,  373,326
classes=2
num=9
jitter=.3
ignore_thresh = .7
truth_thresh = 1
random=1

# Añade más capas y bloques según sea necesario para la arquitectura de YOLOv7